model/model.pth (torch, 32211 bytes, 4 tensors)

linear_one.weight f4 [512, 11]
0.019700635 0.02138459 -0.059019566 -0.21528302 -0.11050567 -0.118375994 -0.051426817 -0.030893974
-0.24226525 -0.2169692 0.12718977 0.18260242 0.11408644 -0.28598726 0.15608701 -0.0131382495
-0.17954205 -0.21981354 -0.030589506 0.1150079 -0.057343807 -0.23863949 -0.20368186 -0.36982676
-0.12966575 -0.2985911 -0.083288915 -0.2024791 -0.24727914 -0.10733974 0.18143661 -0.28392285
0.11677793 -0.08265411 -0.23594642 -0.34803975 -0.033715796 0.0017507779 0.04303936 -0.17662148
-0.046519134 0.19160844 0.10538734 -0.12989101 -0.038121186 -0.049300067 -0.24149951 -0.24289747
-0.017067919 -0.007538246 -0.031592723 -0.059968073 0.14315201 -0.114018865 -0.072340965 -0.15019096
-0.09101881 -0.06478719 -0.13449648 -0.20278245 -0.12637807 -0.30050483 -0.26462713 0.26123163
-0.09085969 -0.0014964092 -0.27442 -0.21856137 -0.31039578 -0.28669485 -0.0124738915 0.0816753
-0.15690874 -0.17142813 -0.30345482 -0.20822601 0.22274843 -0.2736428 -0.2790138 0.043019716
0.06432339 -0.07915047 -0.26787952 -0.17782633 -0.34072435 -0.17255989 -0.09700149 0.18003589
-0.2412014 -0.02619946 0.113979675 -0.15713504 -0.23772903 -0.1932272 -0.060649745 -0.23371568
0.14343217 -0.048680097 -0.15006043 0.102943525 -0.06699595 -0.02581352 -0.28331202 0.009242879
-0.040346112 0.01782146 -0.017166935 -0.29448766 0.15210608 0.06250236 -0.25525305 0.0037212837
-0.21936063 -0.2835351 -0.17528002 -0.12331003 0.11760107 0.15062839 -0.16739108 -0.10470761
-0.22600555 0.11431128 -0.17555492 -0.20568381 -0.29421577 -0.15969896 -0.5237699 0.12381295
0.08326709 0.09514539 -0.10812688 0.11071803 -0.19790265 -0.18833648 -0.15181355 -0.26626825
-0.23264557 0.013270027 -0.07354065 -0.25245643 0.09582375 -0.2428472 0.08943918 -0.23913068
-0.19133958 -0.31426853 -0.2613425 -0.12239017 -0.20878151 -0.04520885 -0.11982534 0.22072889
-0.2189977 -0.010074076 -0.30463907 -0.2673602 -0.08679267 -0.16880392 -0.29059505 0.021472365
-0.010122533 -0.13263637 -0.043109573 0.13701414 -0.009272644 -0.12834096 -0.030894345 -0.10339743
-0.40926227 -0.00037215484 -0.04169766 -0.01123041 -0.013011097 0.31631428 0.21726578 -0.6537552
0.053240646 -0.115151495 0.10349118 -0.117348514 -0.20933901 -0.32863024 -0.10994783 -0.13945995
0.2708798 -0.063542135 -0.22911128 0.06285443 0.0047352165 -0.24830624 -0.062103927 -0.031738754
-0.018495303 -0.20974842 0.09704028 0.03429521 0.118523195 -0.19356911 -0.19684076 0.02716652
-0.058473926 -0.166103 -0.35686213 -0.17125556 -0.1381534 0.052400336 -0.126006 -0.025519598
0.16017099 -0.08732006 -0.15166879 -0.05971603 0.10595755 -0.34119347 -0.26642618 -0.32298154
0.04759222 -0.19272166 -0.334615 0.005778781 -0.105258286 -0.18010214 -0.084397435 -0.11427774
-0.12910815 -0.14288706 -0.23274992 -0.3466128 0.1473993 0.041049305 -0.11612385 -0.2255135
-0.36141044 -0.23411782 -0.089336105 -0.07961425 0.061525296 -0.006918301 -0.11908965 -0.20250154
0.12794814 -0.30598927 -0.2431032 -0.21080504 -0.25432286 -0.30603126 -0.12791453 -0.21090998
-0.15123309 -0.027657598 0.036529034 0.17023513 -0.30975124 0.75703496 0.78931403 0.7114638
00000000: 3a63 a13c bc2e af3c 80be 71bd 2773 5cbe
00000010: cc50 e2bd 1d6f f2bd eda4 52bd 5c15 fdbc
00000020: 6214 78be 2d2d 5ebe 093e 023e 21fc 3a3e
00000030: 27a6 e93d ec6c 92be 46d5 1f3e d041 57bc
00000040: dfd9 37be cd16 61be d896 fabc 4389 eb3d
00000050: 57e1 6abd e95d 74be fa91 50be ef59 bdbe
00000060: 19c7 04be efe0 98be 6193 aabd ae56 4fbe
00000070: be36 7dbe f0d4 dbbd 85ca 393e 565e 91be
00000080: 4429 ef3d 8f46 a9bd f09b 71be 4432 b2be
00000090: 9319 0abd 5c7a e53a 0a4a 303d 43dc 34be
000000a0: d98a 3ebd 0135 443e 51d5 d73d 2602 05be
000000b0: f624 1cbd deee 49bd a64b 77be 1dba 78be
000000c0: 05d2 8bbc 6403 f7bb 5f67 01bd 15a1 75bd
000000d0: 7196 123e b982 e9bd 8027 94bd a9cb 19be
000000e0: 1268 babd 25af 84bd 72b9 09be 34a6 4fbe
000000f0: 4169 01be c5db 99be 357d 87be 27c0 853e
00000100: a514 babd 2923 c4ba c780 8cbe 8dce 5fbe
00000110: 32ec 9ebe abc9 92be 4b5f 4cbc 6145 a73d
00000120: afac 20be db8a 2fbe 6e5e 9bbe 3339 55be
00000130: 2a18 643e e91a 8cbe e6da 8ebe 7135 303d
00000140: fbbb 833d a419 a2bd 8127 89be 1b18 36be
00000150: 6c73 aebe 8ab3 30be b8a8 c6bd 545b 383e
00000160: 80fd 76be 40a0 d6bc 2d6e e93d 02e8 20be
00000170: 3d6f 73be 5add 45be de6b 78bd 2a53 6fbe
00000180: e2df 123e c864 47bd 71a9 19be 0ed4 d23d
00000190: 2c35 89bd e076 d3bc 460e 91be 726f 173c
000001a0: f741 25bd 4ffe 913c aca1 8cbc 16c7 96be
000001b0: b2c1 1b3e 3d01 803d 87b0 82be c8e0 733b
000001c0: 13a0 60be 832b 91be 9b7c 33be f889 fcbd
000001d0: d4d8 f03d 543e 1a3e 9168 2bbe f270 d6bd
000001e0: 006e 67be 081c ea3d abc4 33be c79e 52be
000001f0: 73a3 96be 2088 23be c915 06bf a591 fd3d
00000200: f087 aa3d 96db c23d a071 ddbd 22c0 e23d
00000210: fea6 4abe 47db 40be 0375 1bbe 5054 88be
00000220: a43a 6ebe 876a 593c 7b9c 96bd f841 81be
00000230: 3e3f c43d f0ac 78be e42b b73d acde 74be
00000240: 86ee 43be cee7 a0be afce 85be b3a7 fabd
00000250: d2ca 55be ea2c 39bd fd66 f5bd c106 623e
00000260: ef40 60be bd0d 25bc a7f9 9bbe 70e3 88be
00000270: 5bc0 b1bd efda 2cbe e0c8 94be d0e6 af3c
00000280: fbd8 25bc d4d1 07be aa93 30bd 6f4d 0c3e
00000290: 4aec 17bc d06b 03be 2316 fdbc 08c2 d3bd
000002a0: d38a d1be c71d c3b9 2acb 2abd c1ff 37bc
000002b0: 7f2c 55bc f2f3 a13e ec7a 5e3e 805c 27bf
000002c0: dd12 5a3d 8cd4 ebbd 2ff3 d33d 6b54 f0bd
000002d0: f75c 56be 3942 a8be 542c e1bd 97ce 0ebe
000002e0: c2b0 8a3e 6122 82bd 269c 6abe d3b9 803d
000002f0: e029 9b3b fe43 7ebe b060 7ebd 7f00 02bd
00000300: 7683 97bc 4ac8 56be 0ebd c63d 2279 0c3d
00000310: 4abc f23d fb36 46be a090 49be 528c de3c
00000320: 5b82 6fbd e816 2abe a2b6 b6be 9e5d 2fbe
00000330: 1678 0dbe bca1 563d b807 01be 7a0e d1bc
00000340: dd03 243e dcd4 b2bd 104f 1bbe cc98 74bd
00000350: 4600 d93d e9b0 aebe 0369 88be d65d a5be
00000360: 0ff0 423d d458 45be a852 abbe ee5b bd3b
00000370: a891 d7bd b26c 38be 90d8 acbd 730a eabd
00000380: ed34 04be fc50 12be ff55 6ebe 3c77 b1be
00000390: d8ef 163e 5123 283d 57d2 edbd 03ed 66be
000003a0: ca0a b9be 95bc 6fbe d9f5 b6bd cc0c a3bd
000003b0: f301 7c3d eab2 e2bb 46e5 f3bd 905c 4fbe
000003c0: d604 033e a0aa 9cbe 0cf0 78be 47dd 57be
000003d0: 9b36 82be 21b0 9cbe 07fc 02be c9f8 57be
000003e0: d9dc 1abe 3092 e2bc 789f 153d 1e52 2e3e
000003f0: b797 9ebe 0bcd 413f 7c10 4a3f 7e22 363f

linear_one.bias f4 [512]
-0.1655235 -0.33872858 -0.106695704 -0.33961257 -0.1205095 -0.07153224 -0.09199154 -0.18262799
-0.268449 -0.3464745 -0.18948004 -0.45612916 -0.05666851 -0.06511313 -0.11437427 -0.5079254
-0.31124324 -0.33185646 -0.25883093 -0.17382716 -0.08429623 -0.11131225 -0.0780642 -1.3177407
-0.23521966 -0.13045405 -0.1762804 -0.25037917 -0.24563521 -0.22624263 -0.2768471 -0.1856959
-0.36129907 -0.10726465 -0.383597 -0.28507704 -0.6701552 -0.20810045 -0.43851107 -0.2661583
-0.20418638 -0.2551269 -1.9651366 -0.3003111 -0.34617403 -0.33637774 -0.33161333 -0.09007206
-0.2193086 -0.2095482 -0.2989126 -0.25245756 -5.4218675e-05 -0.25426155 -0.11067098 -0.34275848
-0.27399993 -0.33164626 -0.2176319 -0.34382245 -0.120707266 -0.333292 -0.2134872 -0.2243654
-0.17759307 -0.0635235 -0.09283377 -0.36194143 -0.28551772 -0.3330269 -0.08450153 -0.28675738
-0.5266637 0.06792669 -0.010264003 -0.18850349 -0.047742873 -0.21612786 -0.27295452 -0.26511016
-0.18955822 -0.35707042 -0.016151369 -0.2025862 0.12301231 -0.26197103 -0.23640189 -0.045238774
-0.27074608 -0.193358 -0.24970528 -0.34464416 -0.7809113 -0.07527772 -0.09664524 -0.33244085
-0.054343086 -0.37125596 -0.07605324 -0.23513727 -0.037863966 -0.36495176 -0.11497686 -0.0020078258
-0.3407736 -0.19997437 -0.30227354 -0.3464438 -0.28302023 -0.54445946 -0.047005314 -0.33296427
-0.21539131 -0.14684053 -0.17059325 -0.33542445 -0.13844553 -0.3338871 -0.27458787 -0.1611537
-0.18250051 -0.13237433 -0.47888348 -0.35165873 -0.65505695 -0.2882077 -0.082598545 -0.37554446
-0.39192602 -0.10869217 -0.06601418 -0.17235032 0.4850695 -0.20543346 -0.23679449 -0.43608323
-0.5483671 -0.16723236 -0.5077837 -0.48944196 -0.04010717 -0.414232 -0.26129577 -0.20530754
-0.21436611 -0.20398016 -0.18498321 -0.21889183 -0.5031446 -0.19987498 -0.41556153 -0.31982532
-0.32239896 -0.41348138 -0.10930741 -0.2634223 -0.29835528 -0.5140284 -0.28159353 -0.115936466
-0.21803656 -0.3549589 -0.3280427 -0.254031 -0.077913195 -0.2904892 -0.11678378 -0.37164536
-0.22853455 -0.636882 -0.42510304 -0.4659986 -0.4458854 -0.33734873 -0.25826743 -0.43745986
-0.42058825 -0.14947098 -0.28987905 -0.19435593 -0.123577006 -0.2691477 -0.29609936 -0.30145195
-0.45055455 -0.15364793 0.05484432 -0.30235484 -0.31192008 -0.21399859 -0.3021729 -0.027844882
-0.34518704 -0.2242668 -0.05596948 -0.41981184 -0.21400677 -0.44730386 -0.20197968 -0.1378035
-0.096641034 -0.16178766 0.047687788 -0.274593 -0.24440928 -0.3839217 -0.09551538 -0.25440124
-0.21022844 -0.3685891 -0.031261027 -0.20093754 -0.18407945 0.27250403 0.1785818 -0.13431852
-0.18114963 -0.35366115 -0.14668109 -0.41877222 -0.5907543 -0.2491808 -0.20794237 -0.15366185
-0.38094848 -0.30423114 -0.10902381 -0.32334033 -0.2684515 -0.1285819 -0.098777 -0.29276016
-0.079490006 -0.15917337 -0.3959467 0.36526084 -0.25950664 -0.5547179 0.17676398 -0.6868671
-0.71461487 -0.38029277 -0.07630454 -0.018699544 -0.21857539 -0.14072303 -1.3311033 -0.31728318
-0.37003094 -0.2480923 -0.3636128 -0.26724955 -0.06537924 -0.26419115 -0.06924813 -0.026175588
00000000: fe7e 29be d56d adbe 4783 dabd b3e1 adbe
00000010: afcd f6bd 7f7f 92bd 0f66 bcbd d502 3bbe
00000020: 2672 89be 1b65 b1be 0e07 42be c389 e9be
00000030: 3d1d 68bd 085a 85bd 0f3d eabd 6607 02bf
00000040: 465b 9fbe 17e9 a9be 7d85 84be bfff 31be
00000050: 80a3 acbd adf7 e3bd 20e0 9fbd baab a8bf
00000060: 6cdd 70be bf95 05be d982 34be b331 80be
00000070: cc87 7bbe 26ac 67be e7be 8dbe 1127 3ebe
00000080: 31fc b8be 92ad dbbd d366 c4be 9ef5 91be
00000090: 4b8f 2bbf 4918 55be 8684 e0be e745 88be
000000a0: 3c16 51be fe9f 82be 9989 fbbf 60c2 99be
000000b0: b93d b1be b439 acbe 39c9 a9be b377 b8bd
000000c0: 6f92 60be ce93 56be 130b 99be 1e42 81be
000000d0: dc68 63b8 922e 82be 77a7 e2bd 0a7e afbe
000000e0: b849 8cbe 8acd a9be e6da 5ebe 7f09 b0be
000000f0: 5f35 f7bd 40a5 aabe 639c 5abe 0bc0 65be
00000100: f5da 35be 9c18 82bd a21f bebd 6350 b9be
00000110: 612f 92be 8082 aabe 230f adbd ddd1 92be
00000120: 6fd3 06bf 261d 8b3d 592a 28bc 0f07 41be
00000130: 088e 43bd 9f50 5dbe b2c0 8bbe 85bc 87be
00000140: 8d1b 42be efd1 b6be e04f 84bc c272 4fbe
00000150: e1ed fb3d 1121 86be 5613 72be 4b4c 39bd
00000160: 3b9f 8abe a4ff 45be beb2 7fbe 3375 b0be
00000170: cee9 47bf 352b 9abd f1ed c5bd b035 aabe
00000180: db96 5ebd 4315 bebe cdc1 9bbd d3c7 70be
00000190: 3f17 1bbd f5da babe fd78 ebbd ba95 03bb
000001a0: e179 aebe 15c6 4cbe 99c3 9abe 1561 b1be
000001b0: 07e8 90be b261 0bbf a588 40bd 4b7a aabe
000001c0: 8a8f 5cbe 5d5d 16be ffaf 2ebe c1bc abbe
000001d0: aac4 0dbe 40f3 aabe c896 8cbe 7a05 25be
000001e0: 6ae1 3abe 238d 07be 3730 f5be 9d0c b4be
000001f0: d0b1 27bf f68f 93be 6d29 a9bd 5d47 c0be
00000200: 87aa c8be 009a debd 7132 87bd 9a7c 30be
00000210: 085b f83e 265d 52be 417a 72be 4d46 dfbe
00000220: c961 0cbf f63e 2bbe 1dfe 01bf 2398 fabe
00000230: 6a47 24bd 3716 d4be 8fc8 85be 243c 52be
00000240: ca82 5bbe 2de0 50be 3d6c 3dbe 2e25 60be
00000250: 16ce 00bf 07ac 4cbe 7bc4 d4be 25c0 a3be
00000260: 7a11 a5be d5b3 d3be 90dc dfbd 4adf 86be
00000270: 06c2 98be 5d97 03bf 072d 90be 1970 edbd
00000280: fa44 5fbe 2cbd b5be 36f5 a7be 5a10 82be
00000290: f490 9fbd 00bb 94be 562c efbd 4d48 bebe
000002a0: f604 6abe b30a 23bf 1ba7 d9be 5e97 eebe
000002b0: 174b e4be f9b8 acbe a13b 84be bdfa dfbe
000002c0: 5857 d7be ec0e 19be 076b 94be 3e05 47be
000002d0: f115 fdbd bacd 89be 569a 97be e957 9abe
000002e0: 16af e6be e255 1dbe 70a4 603d 41ce 9abe
000002f0: fdb3 9fbe 7222 5bbe 68b6 9abe f31a e4bc
00000300: 5bbc b0be 32a6 65be 4140 65bd 94f1 d6be
00000310: 9724 5bbe 0305 e5be c3d3 4ebe 5c1c 0dbe
00000320: bceb c5bd aaab 25be 4554 433d 7497 8cbe
00000330: 6d46 7abe 6391 c4be 919d c3bd e140 82be
00000340: 2046 57be b6b7 bcbe 900b 00bd 92c2 4dbe
00000350: 537f 3cbe a685 8b3e 26de 363e cb8a 09be
00000360: 4a7f 39be 1313 b5be 9133 16be 5069 d6be
00000370: ac3b 17bf 4029 7fbe d8ee 54be 8859 1dbe
00000380: ae0b c3be 2fc4 9bbe e047 dfbd dd8c a5be
00000390: 7a72 89be f9aa 03be 994b cabd a9e4 95be
000003a0: a8cb a2bd 58fe 22be 87b9 cabe 7803 bb3e
000003b0: 0ede 84be fe01 0ebf 9e01 353e 86d6 2fbf
000003c0: 00f1 36bf bcb5 c2be 8e45 9cbd c92f 99bc
000003d0: 3ad2 5fbe b319 10be 9861 aabf f172 a2be
000003e0: b274 bdbe e80b 7ebe 752b babe efd4 88be
000003f0: 8de5 85bd 1044 87be f7d1 8dbd 306e d6bc

linear_two.weight f4 [3, 512]
-0.031214569 -0.0036034854 0.81899786 0.16451766 -0.036770944 -0.080011025 -0.00039768755 -0.04111128
0.042479273 0.0035846343 -0.01129601 -0.0020257751 -0.009385714 -0.1557507 -0.03263766 0.85106283
-0.044445023 0.0228413 -0.075934365 0.002397503 0.0045309295 0.014205881 0.031580403 1.90897
-0.005479482 -0.019972663 0.013841887 -0.009191753 -0.0026945297 -0.1003975 -0.023725929 0.019614598
0.22269179 0.00071597786 0.062923916 0.00050674967 1.3089167 -0.03361874 -0.012350156 -0.0055478397
0.015596969 -0.0079131825 2.046278 -0.02936853 0.007881929 -0.02910245 -0.0020021545 0.024105465
0.011321828 -0.017827746 -0.009953137 -0.0009909179 0.31649092 -0.051817603 -0.01438544 -0.0012905735
0.004945801 -0.030869897 0.006867786 -0.015299852 0.029734617 0.0049862433 -0.0006268763 0.056395475
-0.0014225852 -0.24192172 -0.021892436 -0.010701025 -0.055595078 -0.009285711 -0.073105566 0.035264526
-0.033863526 -0.0035640337 -0.0038969924 0.022556225 0.0051620463 2.3018243 0.028160753 0.024893198
-0.079537764 0.05947955 -0.0053410106 0.042902943 0.023036383 0.006424984 0.1669309 -0.014540692
0.043811396 0.0029268626 0.09617215 0.021159971 2.7103086 0.40013814 -0.01088939 -0.0016491103
0.0008831888 0.021111665 -0.056696538 -0.046936706 0.022194209 0.018489618 -0.0024542126 -0.05747117
0.008269246 -0.015938219 0.03429423 -0.16019541 0.0060400325 0.6744477 2.4874852 0.026368603
0.10719881 0.017580563 0.017023364 0.0219457 0.67109734 0.023475595 -0.0025297462 0.03468563
-0.010814573 0.06490899 -0.09869754 0.0024400055 0.50415736 -0.02442407 -0.0076625883 -0.051108304
-0.09606171 -0.016522 -0.10273881 -0.014354541 0.5097558 -0.010801065 -0.02273489 0.6826909
0.06830586 -0.11411367 -0.08311456 0.023134388 0.004586503 0.1045878 0.12683941 0.031837296
-0.015523224 -0.0039069485 -0.038890827 -0.021899955 -0.03462558 0.00793315 -0.07021117 0.28006768
-0.0013475023 0.007110118 0.04854518 -0.030954296 -0.004625227 -0.13663998 -0.004123927 -0.0256897
-0.024814188 -0.003227011 -0.027455142 -0.004978193 -0.23770507 -0.015360302 0.022831742 -0.021259382
-0.0210121 1.9902499 0.756302 -0.11057292 0.005452843 -0.01060028 0.023225881 -0.0015852228
-0.0025956477 0.0015089599 0.0065479428 0.002862697 -0.0054186494 -0.033381097 -0.018262204 0.02669212
0.025961963 -0.0086139655 0.003527809 -0.007980329 -0.007605228 0.072711214 0.013051604 -0.014422946
-0.045727465 -0.01193869 -0.011991203 0.0057626897 -0.09300077 0.020054087 2.3055851 -0.030447472
0.023606526 0.33161044 0.0071864002 -0.036313638 -0.029002542 0.03828677 0.013684907 0.023070399
-0.31719834 0.08685724 0.17276983 -0.09848156 0.021666449 0.048249997 0.06248469 -0.013206581
0.009614714 0.019826282 -0.0029018144 -0.00822043 -0.03688118 -0.011008445 -0.009748721 0.13686226
0.09331568 0.5298411 0.007793129 -0.016544372 0.023439068 0.051019646 0.040476438 0.0030389416
0.016206028 -0.0058438624 -0.15195195 -0.32839942 0.0067838454 -0.25857165 0.07787251 1.8965902
-0.11552021 -0.029132625 -0.004748258 0.0019735976 -0.018873433 0.0180935 2.868351 0.014862891
-0.0163372 -0.011342664 -0.0074794376 -0.0155060515 0.0037229606 -0.0061420873 -0.010334209 0.0042359354
00000000: b2b5 ffbc 7428 6cbb d8a9 513f 5177 283e
00000010: 219d 16bd d2dc a3bd b880 d0b9 4d64 28bd
00000020: bffe 2d3d 2fec 6a3b e612 39bc dec2 04bb
00000030: 8ac6 19bc 1d7d 1fbe 11af 05bd 41df 593f
00000040: fc0b 36bd ae1d bb3c 7a83 9bbd 6d1f 1d3b
00000050: 3178 943b c9bf 683c 745a 013d 2159 f43f
00000060: 3a8d b3bb b69d a3bc 15c9 623c 0299 16bc
00000070: b596 30bb 349d cdbd e15c c2bc cbae a03c
00000080: 5109 643e 76b0 3b3a 41de 803d 65d7 043a
00000090: 958a a73f ceb3 09bd 4f58 4abc a7ca b5bb
000000a0: 6e8a 7f3c 4ba6 01bc 38f6 0240 4596 f0bc
000000b0: 3523 013c 4368 eebc 9436 03bb d378 c53c
000000c0: 307f 393c 7e0b 92bc 7b12 23bc b0e1 81ba
000000d0: 190b a23e b23e 54bd e9b0 6bbc 7628 a9ba
000000e0: 6310 a23b dee2 fcbc 2a0b e13b 3bac 7abc
000000f0: 0396 f33c a463 a33b f554 24ba f1fe 663d
00000100: 0a76 baba 54ba 77be c457 b3bc 5a53 2fbc
00000110: aab7 63bd 1823 18bc 5fb8 95bd 8971 103d
00000120: 7bb4 0abd 9092 69bb af64 7fbb d5c7 b83c
00000130: 6226 a93b 1751 1340 61b1 e63c d2ec cb3c
00000140: b2e4 a2bd d4a0 733d a503 afbb ffba 2f3d
00000150: ccb6 bc3c ac88 d23b efef 2a3e 153c 6ebc
00000160: 9473 333d 9bd0 3f3b e7f5 c43d ad57 ad3c
00000170: b275 2d40 e8de cc3e 6969 32bc f626 d8ba
00000180: cc85 673a 5ff2 ac3c a13a 68bd b440 40bd
00000190: a1d0 b53c 8a77 973c dbd6 20bb e466 6bbd
000001a0: bb7b 073c de90 82bc 1b78 0c3d 440a 24be
000001b0: 77eb c53b 9ba8 2c3f f532 1f40 f802 d83c
000001c0: 0d8b db3d 1d05 903c 9574 8b3c 78c7 b33c
000001d0: 09cd 2b3f e44f c03c 19ca 25bb 8512 0e3d
000001e0: 9b2f 31bc 01ef 843d f021 cabd 80e8 1f3b
000001f0: 7510 013f fd14 c8bc 7316 fbbb f156 51bd
00000200: 00bc c4bd 2559 87bc ba68 d2bd 4f2f 6bbc
00000210: 5b7f 023f f3f6 30bc 853e babc d5c4 2e3f
00000220: f1e3 8b3d 6eb4 e9bd f737 aabd 5484 bd3c
00000230: 604a 963b 2132 d63d 31e2 013e d367 023d
00000240: 1f55 7ebc dc05 80bb fd4b 1fbd 8967 b3bc
00000250: 8dd3 0dbd 0bfa 013c e0ca 8fbd 0865 8f3e
00000260: ad9e b0ba fefb e83b 50d7 463d dd93 fdbc
00000270: 378f 97bb 5aeb 0bbe 0222 87bb 3573 d2bc
00000280: 2047 cbbc 437c 53bb 9be9 e0bc 1c20 a3bb
00000290: f568 73be c7a9 7bbc a209 bb3c 2828 aebc
000002a0: 9121 acbc 82c0 fe3f 029d 413f 0e74 e2bd
000002b0: c3ad b23b ccac 2dbc 3444 be3c 40c7 cfba
000002c0: be1b 2abb 4bc8 c53a 2090 d63b 169c 3b3b
000002d0: ed8e b1bb 9eba 08bd 9e9a 95bc 6fa9 da3c
000002e0: 2fae d43c 9721 0dbc d032 673b edbf 02bc
000002f0: 4735 f9bb 9ee9 943d 65d6 553c 384e 6cbc
00000300: b94c 3bbd 7f9a 43bc c076 44bc f2d4 bc3b
00000310: 3077 bebd 7848 a43c b58e 1340 fa6c f9bc
00000320: 7962 c13c d8c8 a93e e57b eb3b 9cbd 14bd
00000330: bd96 edbc 97d2 1c3d a936 603c 22fe bc3c
00000340: d267 a2be 35e2 b13d 93ea 303e b3b0 c9bd
00000350: d67d b13c caa1 453d f2ef 7f3d 6a60 58bc
00000360: 0987 1d3c ba6a a23c 5e2c 3ebb fcae 06bc
00000370: b810 17bd c45c 34bc 19b9 1fbc 9f25 0c3e
00000380: 4b1c bf3d aba3 073f 815d ff3b 1088 87bc
00000390: 4a03 c03c faf9 503d 9fca 253d fb28 473b
000003a0: 81c2 843c df7d bfbb 4b99 1bbe f823 a8be
000003b0: 054b de3b 8163 84be 9f7b 9f3d 78c3 f23f
000003c0: dc95 ecbd 8ba7 eebc 4697 9bbb 7957 013b
000003d0: 759c 9abc d238 943c 1093 3740 7c83 733c
000003e0: 97d5 85bc 95d6 39bc 1216 f5bb 180d 7ebc
000003f0: eafc 733b 9043 c9bb d050 29bc 9acd 8a3b

linear_two.bias f4 [3]
0.28344443 0.04795651 0.023660922
00000000: a11f 913e 0c6e 443d 8dd4 c13c
